data.pth (torch, 5719 bytes, 6 tensors)

l1.weight f4 [8, 69]
-0.16319562 0.17152438 0.51328385 0.049765788 0.16571766 0.1356594 0.119828515 -0.110927515
0.29022673 0.079588145 0.4290652 0.4798036 0.18984647 0.51778597 0.18980126 0.64577436
0.42208013 0.6105111 0.019135408 0.10638486 0.14132415 0.05644979 0.51899517 0.274246
-0.12538432 -0.19613703 0.4813097 -0.34927362 0.43185893 0.38808006 0.5188869 0.41644225
0.19684666 -0.0041721915 0.30855337 0.03850439 0.012775574 0.07643473 0.064716496 0.5448272
-0.14799324 0.47871503 0.25190207 0.4017595 0.0077485046 0.14833562 0.6624441 0.012236614
0.22587208 0.42586085 0.38134542 -0.024586221 -0.08546502 0.35894972 -0.011088655 0.06497028
0.5274503 0.24194774 0.3618648 -0.7221008 -0.17443489 0.25470325 0.1013945 -0.05486229
0.50393385 -0.006688326 0.18397965 0.40738443 0.07224174 0.07979772 0.04361799 -0.2684024
0.275359 -0.3927922 -0.29531914 0.2937072 0.6534935 -0.06225751 0.48041975 -0.31409028
-0.20515135 0.5788486 -0.18210211 -0.3850174 -0.3889773 0.38184085 -0.17857893 0.32552755
0.43913153 0.5048529 0.05534192 -0.47381 -0.32616743 0.5969712 0.48847625 -0.71113545
0.089387596 -0.7111746 -0.71109915 -0.5120999 -0.36485916 -0.59197235 0.7525386 -0.14630441
0.5231791 -0.03204627 0.2969033 0.44838345 -0.2454306 0.120349474 -0.26828846 -0.06390399
0.59677494 0.5044135 0.08026885 -0.107889876 0.39456856 0.58916557 -0.046328727 -0.09330542
0.38285768 0.7114601 -0.30548713 0.20158711 -0.100276686 0.5303649 0.6191102 -0.11983728
0.084739335 0.01602006 0.31197459 0.43919164 0.9358174 -0.46201017 0.55789506 0.454425
-0.004553999 0.2554738 0.24018332 0.65129364 -0.39825606 0.023589723 -0.12570998 -0.32566532
-0.090496704 -0.5955155 -0.20518522 -0.09240846 -0.3836986 -0.33366126 -0.16351065 -0.39623845
-0.23889896 0.45642802 0.36988115 0.38949573 -0.17545469 -0.07695775 -0.06441798 0.41218492
0.3304536 -0.1915646 -0.5955548 -0.051198706 0.0046095653 0.38673735 -0.07333511 -0.16273612
0.26017854 0.22800748 -0.13656445 0.18413763 0.62351197 0.22535011 0.58038414 -0.43150795
-0.16295439 0.5176053 -0.09006848 -0.50240046 0.694555 0.052106515 0.18319964 0.09285641
-0.21062134 -0.14921467 -0.37068993 -0.20877197 -0.18106776 -0.438013 0.05020419 0.43977693
-0.030271176 0.41925943 0.12627597 -0.25398156 0.6391322 0.5845177 0.29126847 0.3544776
-0.14897984 0.18278146 0.3733803 0.043653734 -0.08485937 -0.22848926 0.27426276 0.52535194
0.10832086 0.161527 -0.09115534 0.41282287 0.031164259 -0.0077464622 0.7771095 0.18118636
-0.14978437 0.3230163 -0.35747993 -0.20464347 0.2217897 0.20830028 -0.32282847 -0.12557118
-0.50611466 -0.094678745 -0.12878977 -0.12947327 -0.2853933 -0.10338064 0.28604296 0.8683325
-0.09232423 0.60216206 0.38106105 0.56192017 0.4863382 0.24530801 -0.020144701 0.2876281
-0.33704567 -0.56155205 -0.17602375 -0.5530249 0.5749433 -0.09542874 -0.354309 0.5543292
0.06253095 -0.38439444 -0.29519847 -0.117818244 -0.013476857 -0.51747584 -0.31718832 -0.2138224
00000000: c11c 27be 16a4 2f3e 9266 033f 36d7 4b3d
00000010: e4b1 293e 4cea 0a3e a768 f53d f72d e3bd
00000020: 9998 943e 1cff a23d 6fae db3e d1a8 f53e
00000030: 1d67 423e 9f8d 043f 435b 423e 7851 253f
00000040: e31a d83e 754a 1c3f dcc1 9c3c 4ee0 d93d
00000050: 47b7 103e e537 673d dedc 043f f969 8c3e
00000060: bf64 00be 25d8 48be 3a6e f63e fed3 b2be
00000070: 9d1c dd3e 6eb2 c63e c6d5 043f eb37 d53e
00000080: 2c92 493e e1b6 88bb b5fa 9d3e c7b6 1d3d
00000090: a450 513c d089 9c3d 158a 843d cc79 0b3f
000000a0: 8a8b 17be 231a f53e 4ff9 803e 6cb3 cd3e
000000b0: 2be7 fd3b 4be5 173e f095 293f 147c 483c
000000c0: 034b 673e 6f0a da3e b53f c33e 0b69 c9bc
000000d0: 4908 afbd 42c8 b73e 31ad 35bc 230f 853d
000000e0: fc06 073f 26c1 773e 5846 b93e 99db 38bf
000000f0: 0f9f 32be 7768 823e eba7 cf3d 48b7 60bd
00000100: cf01 013f bf29 dbbb 2965 3c3e b194 d03e
00000110: 7af3 933d fd6c a33d c7a8 323d 0a6c 89be
00000120: dbfb 8c3e 0f1c c9be 1234 97be ca60 963e
00000130: 5a4b 273f bb01 7fbd 94f9 f53e 71d0 a0be
00000140: 3213 52be 6c2f 143f fa78 3abe 0021 c5be
00000150: 0828 c7be a580 c33e 65dd 36be 8cab a63e
00000160: d9d5 e03e 0a3e 013f 36ae 623d 3997 f2be
00000170: 6bff a6be 1bd3 183f 8f19 fa3e f90c 36bf
00000180: d810 b73d 8a0f 36bf 980a 36bf fb18 03bf
00000190: d2ce babe 808b 17bf 5fa6 403f d3d0 15be
000001a0: 11ef 053f f342 03bd b603 983e 8492 e53e
000001b0: 2952 7bbe c979 f63d 1b5d 89be 18e0 82bd
000001c0: 3ec6 183f 3e21 013f ff63 a43d 5ef5 dcbd
000001d0: e404 ca3e 8ed3 163f 31c3 3dbd e916 bfbd
000001e0: ec05 c43e 4022 363f cf68 9cbe da6c 4e3e
000001f0: dd5d cdbd fec5 073f 027e 1e3f 3f6d f5bd
00000200: d18b ad3d 803c 833c 22bb 9f3e badd e03e
00000210: bb91 6f3f 998c ecbe 36d2 0e3f 65aa e83e
00000220: b639 95bb 76cd 823e 9ef2 753e 2ebb 263f
00000230: 38e8 cbbe 3c3f c13c 1eba 00be 9bbd a6be
00000240: 5656 b9bd b473 18bf 131c 52be a640 bdbd
00000250: 2574 c4be a6d5 aabe 566f 27be c4df cabe
00000260: eea1 74be efb0 e93e 1061 bd3e fc6b c73e
00000270: 65aa 33be 069c 9dbd 93ed 83bd e709 d33e
00000280: 3731 a93e 8329 44be 4876 18bf bcb5 51bd
00000290: d60b 973b 7002 c63e b830 96bd 4ca4 26be
000002a0: 1f36 853e cb7a 693e 8dd7 0bbe 938e 3c3e
000002b0: 7b9e 1f3f 2ec2 663e 0e94 143f 9cee dcbe
000002c0: 84dd 26be c881 043f d375 b8bd 519d 00bf
000002d0: 5bce 313f a46d 553d b098 3b3e 802b be3d
000002e0: 1fad 57be bbcb 18be 12cb bdbe 52c8 55be
000002f0: d469 39be 3d43 e0be e9a2 4d3d 712a e13e
00000300: 42fb f7bc 2ca9 d63e 7d4e 013e df09 82be
00000310: 2b9e 233f f4a2 153f 2421 953e 177e b53e
00000320: 2c8e 18be 102b 3b3e b42b bf3e 42ce 323d
00000330: c0ca adbd 17f9 69be 2b6c 8c3e 777d 063f
00000340: 54d7 dd3d 5567 253e a7af babd 855d d33e
00000350: 304c ff3c 09d6 fdbb a6f0 463f eb88 393e
00000360: 1361 19be 6462 a53e 9c07 b7be 0f8e 51be
00000370: d71c 633e ab4c 553e c649 a5be bb95 00be
00000380: bb90 01bf eee6 c1bd 77e1 03be a494 04be
00000390: 121f 92be 3bb9 d3bd 3974 923e 0a4b 5e3f
000003a0: 7c14 bdbd 4b27 1a3f 6f1a c33e 00da 0f3f
000003b0: 5201 f93e 0632 7b3e 8006 a5bc fe43 933e
000003c0: 4091 acbe e0c1 0fbf 923f 34be 0a93 0dbf
000003d0: 7c2f 133f 2570 c3bd fd67 b5be 85e8 0d3f
000003e0: 3a10 803d 59cf c4be 4124 97be b14a f1bd
000003f0: 09ce 5cbc 4c79 04bf 8266 a2be 42f4 5abe

l1.bias f4 [8]
0.68660504 0.71109706 0.595525 1.1204262 0.49313062 0.44362658 0.7493767 1.1386827
00000000: 59c5 2f3f 750a 363f 5474 183f 206a 8f3f
00000010: 9e7b fc3e 0623 e33e 27d7 3f3f 5bc0 913f

l2.weight f4 [8, 8]
0.7752481 1.0822676 0.68248934 -1.2551868 1.187227 0.96275294 0.65712476 -0.530979
0.9026109 -1.4111137 0.6864758 -0.36840788 0.67426765 0.8409288 0.687493 0.6227707
0.93320423 -0.053692784 -0.54961914 -1.1089302 -0.81996715 0.7155204 1.1172396 -0.039950643
0.24210054 1.1436422 -0.9254609 0.34339264 -0.23812678 0.16607577 1.0358566 -0.38482067
0.11929566 0.24010164 0.32254517 1.7933525 0.12844522 -0.62512296 0.43750772 1.3355074
0.61748785 -0.91339964 -0.7279827 0.3742884 0.67431647 -0.04271509 1.0063716 0.94045347
0.5164073 1.0204622 -1.0385065 0.56937605 -1.1487803 1.1221737 0.91990966 -0.44030163
0.0008984804 -0.16657172 0.010409206 -0.2752818 -0.15141706 -0.1777035 0.1849806 -0.21917124
00000000: a976 463f bf87 8a3f 9fb7 2e3f f6a9 a0bf
00000010: 0ef7 973f fa76 763f 5439 283f 3dee 07bf
00000020: 8211 673f 609f b4bf e1bc 2f3f f59f bcbe
00000030: ce9c 2c3f 1c47 573f 8bff 2f3f e76d 1f3f
00000040: 79e6 6e3f f7ec 5bbd d7b3 0cbf 6df1 8dbf
00000050: 5ee9 51bf 582c 373f b501 8f3f 49a3 23bd
00000060: 34e9 773e de62 923f 01eb 6cbf 29d1 af3e
00000070: 82d7 73be c40f 2a3e f396 843f 3707 c5be
00000080: 4851 f43d 34dd 753e a424 a53e 938c e53f
00000090: 2587 033e 0f08 20bf 0301 e03e e8f1 aa3f
000000a0: af13 1e3f 8fd4 69bf 135d 3abf bba2 bf3e
000000b0: 01a0 2c3f 05f6 2ebd c9d0 803f 8fc1 703f
000000c0: 4533 043f 819e 823f c8ed 84bf a1c2 113f
000000d0: 3c0b 93bf 63a3 8f3f 337f 6b3f 376f e1be
000000e0: 0088 6b3a c791 2abe 608b 2a3c bcf1 8cbe
000000f0: 130d 1bbe e8f7 35be 8e6b 3d3e 6d6e 60be

l2.bias f4 [8]
-0.028383024 0.109046414 0.23006023 0.0072230417 0.9995693 -0.3233617 0.08615845 -0.3017506
00000000: 8483 e8bc ba53 df3d e994 6b3e 44af ec3b
00000010: c6e3 7f3f aa8f a5be d773 b03d 0e7f 9abe

l3.weight f4 [8, 8]
-1.1339144 0.31406295 -0.7805563 -0.81624204 0.28790545 0.9211136 -1.2572463 -0.10887353
-1.263 -1.3252847 -0.95978075 0.39768633 0.2774039 0.066001736 0.55982 -0.29521233
-0.94139767 -1.7450359 -0.5863211 -1.2635554 1.2004831 -0.9929753 -1.6403319 -0.025069863
0.5229098 -0.68115985 -1.2665242 0.6192526 -0.49449745 -1.2490605 0.06668227 0.2481226
-0.4530651 0.16483942 0.61723363 -0.021502148 -0.28574166 -0.31357852 0.17400429 0.041587383
-0.054313157 -0.86333156 0.557806 0.41383377 -1.1623797 -1.3021817 0.6238701 0.25722978
-0.051505473 0.48285604 0.388049 -1.5366156 -0.34559277 0.040885627 -0.71890634 -0.02890709
0.5455798 0.86095214 -0.9604929 -0.7669001 -0.9383809 -1.4316545 -1.2071279 0.14954737
00000000: 1b24 91bf dccc a03e 8ad2 47bf 3df5 50bf
00000010: 5868 933e 1ace 6b3f 72ed a0bf 16f9 debd
00000020: fca9 a1bf eea2 a9bf 31b4 75bf 8b9d cb3e
00000030: e207 8e3e eb2b 873d 5d50 0f3f 1226 97be
00000040: 70ff 70bf 565d dfbf 2419 16bf 2fbc a1bf
00000050: 6ea9 993f a133 7ebf 65f6 d1bf 505f cdbc
00000060: 6bdd 053f 7e60 2ebf 771d a2bf 5787 1e3f
00000070: c52e fdbe 37e1 9fbf b790 883d da13 7e3e
00000080: 26f8 e7be aacb 283e 0603 1e3f 4625 b0bc
00000090: bb4c 92be 5d8d a0be 2e2e 323e 8857 2a3d
000000a0: 7977 5ebd 4c03 5dbf 60cc 0e3f 05e2 d33e
000000b0: dcc8 94bf e4ad a6bf f3b5 1f3f 9fb3 833e
000000c0: 67f7 52bd e838 f73e 5cae c63e d2af c4bf
000000d0: 89f1 b0be b077 273d 3f0a 38bf 90ce ecbc
000000e0: 1eab 0b3f 5c67 5c3f dde2 75bf 9153 44bf
000000f0: bb39 70bf 7440 b7bf 2b83 9abf f222 193e

l3.bias f4 [8]
-0.08247676 -0.05668656 0.4976393 0.07514849 -0.20131516 -0.2029778 -0.57972115 -0.0013911256
00000000: 93e9 a8bd 2b30 68bd 94ca fe3e 74e7 993d
00000010: 9025 4ebe 6ad9 4fbe 9b68 14bf 6e56 b6ba
